data.pth (torch, 5375 bytes, 6 tensors)

l1.weight f4 [8, 60]
0	0xbf0b3fdf	-0.54394335
1	0xbe46c7c3	-0.1941214
2	0xbe6f27c3	-0.23355012
3	0x3f559102	0.8342439
4	0x3f028d6d	0.5099705
5	0x3ea33eeb	0.3188394
6	0xbc29908f	-0.010349407
7	0xbf03a5bb	-0.5142476
8	0x3f7ab5af	0.9793348
9	0x3eeb8bb4	0.46005023
10	0x3ca351d4	0.01993648
11	0xbedaed9b	-0.42759404
12	0xbed2a5d1	-0.41142133
13	0xbe555943	-0.20834832
14	0x3e7858a5	0.24252565
15	0x3e59718f	0.21234725
16	0x3b95ebc0	0.0045752227
17	0xbdbcd530	-0.0922035
18	0x3e902652	0.28154236
19	0x3f690724	0.9102652
20	0xbd89624e	-0.06708203
21	0x3ed635a6	0.41837806
22	0xbd5d509f	-0.054031964
23	0x3f16430d	0.5869606
24	0x3ee316c8	0.44353318
25	0x3f1b7dcd	0.6073883
26	0x3c2291af	0.009922429
27	0x3e36c56b	0.17848746
28	0xbdbb4555	-0.091440834
29	0xbd54439f	-0.0518223
30	0x3f2b3b48	0.6688733
31	0x3d11c978	0.035592526
32	0xbdc50e20	-0.09621835
33	0x3eb9be12	0.36277825
34	0xbed9448b	-0.42435107
35	0x3dbc68b8	0.09199661
36	0x3c1f79a8	0.009733595
37	0xbe494767	-0.19656144
38	0xbedb8aee	-0.42879432
39	0x3f3d7b0c	0.7401588
40	0xbe9da07a	-0.30786496
41	0xbe287a2e	-0.16452858
42	0x3f0937c2	0.53600705
43	0x3f1f066f	0.6211919
44	0xbe2d9547	-0.16951476
45	0xbeaefa7b	-0.34175476
46	0x3e3188a5	0.17337282
47	0xbf51d011	-0.8195811
48	0xbe62de4d	-0.22155114
49	0xbef4885d	-0.47760287
50	0x3e8fa615	0.28056398
51	0xbe7e3c9a	-0.24827805
52	0x3ecc338e	0.39883083
53	0xbe20e50c	-0.15712374
54	0xbec09b7e	-0.3761863
55	0xbd221890	-0.039574206
56	0xbf618fff	-0.88110346
57	0xbe4dd272	-0.2009981
58	0x3d93809b	0.07202264
59	0xbd47c5f0	-0.048772752
60	0xbe9b9bb9	-0.30392244
61	0x3f480aff	0.7814178
62	0xbeedfea0	-0.46483326
63	0xbf13a528	-0.57673883
64	0xbee0455c	-0.43802917
65	0x3ea484b0	0.32132483
66	0x3e28a74f	0.16470073
67	0x3e9c2c64	0.30502617
68	0xbd6f812a	-0.05847279
69	0x3f0e4b3c	0.5558355
70	0x3e28bf35	0.1647919
71	0xbe74f4cf	-0.23921512
72	0xbf005706	-0.5013279
73	0xbe6c330a	-0.23066345
74	0x3e77eb4b	0.24210851
75	0x3c2caa74	0.010538686
76	0x3e85e911	0.26154378
77	0x3ece4847	0.40289518
78	0x3e927754	0.28606665
79	0x3d06b9cf	0.032892045
80	0x3f2ed7cb	0.68298024
81	0x3f12b298	0.5730376
82	0xbda238cd	-0.0792099
83	0x3efbde88	0.49193215
84	0x3f07890d	0.529435
85	0x3ee98c96	0.4561507
86	0x3e598dc6	0.21245489
87	0x3eb68f13	0.35656032
88	0x3e6c9096	0.2310203
89	0x3ea6cc8d	0.32577935
90	0x3d686754	0.056739166
91	0xbe302b96	-0.17204127
92	0x3e2465e2	0.1605449
93	0xbeeccc3e	-0.46249574
94	0xbebef7ee	-0.3729853
95	0x3e5a3115	0.21307786
96	0xbeaf63eb	-0.3425592
97	0x3ecf1353	0.4044443
98	0xbefb1e52	-0.4904657
99	0xbed48e03	-0.41514596
100	0xbec084b2	-0.37601238
101	0xbea8a5be	-0.3293895
102	0xbea3ecdd	-0.3201665
103	0x3dde9095	0.108674206
104	0x3e662892	0.22476414
105	0xbebc88f3	-0.36823234
106	0x3ea3dc5e	0.32004064
107	0xbf1973ee	-0.5994252
108	0xbdced4cb	-0.10099181
109	0xbebf88df	-0.37409112
110	0x3ec01e4c	0.37523115
111	0xbce0c9db	-0.027440002
112	0xbec69ffb	-0.3879393
113	0xbe7c5dfd	-0.24645229
114	0xbe8d7e8a	-0.27635604
115	0x3eb8c055	0.36084238
116	0x3f4a14bf	0.78937906
117	0xbe8ad92b	-0.2711881
118	0x3e69309d	0.22772451
119	0x3e870e8e	0.26378292
120	0x3f5b347d	0.85626966
121	0x3f01d854	0.50720716
122	0x3ecb9537	0.3976228
123	0xbec1f01f	-0.3787851
124	0xbe807e1a	-0.25096208
125	0x3ee65d37	0.44992992
126	0x3f078e2d	0.5295132
127	0x3f22b75f	0.6356105
128	0xbf144e31	-0.5793181
129	0x3f07c338	0.53032255
130	0x3ef405f5	0.47660795
131	0x3e87d3ba	0.26528722
132	0x3e2b0663	0.16701655
133	0x3ec83942	0.39106184
134	0x3eda5250	0.42640924
135	0x3e0c4979	0.13699903
136	0x3f2003ec	0.62505984
137	0x3e60e066	0.21960601
138	0x3e825f23	0.2546321
139	0xbf08aa0d	-0.53384477
140	0x3f59c2d9	0.8506294
141	0x3f18a798	0.5963073
142	0x3e1ef340	0.1552248
143	0x3f0dd2b7	0.5539965
144	0x3f0286aa	0.5098673
145	0x3f250e14	0.64474607
146	0x3ef4c7b1	0.47808602
147	0xbe4e7dba	-0.20165148
148	0xbef47f8d	-0.47753564
149	0xbefcd45c	-0.49380767
150	0xbf00c5bd	-0.50301725
151	0xbc6fb985	-0.014631634
152	0x3eededab	0.4647039
153	0xbe64eb4e	-0.22355387
154	0x3e8cb0d9	0.27478674
155	0x3e9fced0	0.31212473
156	0xbf6a7ced	-0.9159687
157	0xbc8e427e	-0.01736569
158	0x3e494fa9	0.19659294
159	0xbe5abaa9	-0.21360268
160	0x3eb44e1f	0.35215852
161	0x3e4ae95a	0.19815579
162	0xbe834ab6	-0.25642937
163	0xbf01ccaa	-0.5070292
164	0x3e49fff2	0.19726542
165	0x3e590856	0.21194586
166	0x3ea563b6	0.32302636
167	0x3f023e97	0.50876755
168	0x3dea193c	0.11430594
169	0x3f479fb4	0.7797806
170	0x3e74da7e	0.23911473
171	0x3f3367fb	0.70080537
172	0xbe8f6b48	-0.28011537
173	0x3efde778	0.4959066
174	0x3f401a2d	0.7503994
175	0x3f1ea1a9	0.61965424
176	0x3ed1e8c5	0.40997902
177	0x3e5cfd12	0.21580914
178	0x3f15639c	0.58355117
179	0x3f9d209a	1.2275574
180	0x3f17bdd9	0.5927406
181	0xbea363ff	-0.31912228
182	0x3f31cea1	0.69455916
183	0x3f42b303	0.760544
184	0x3f035808	0.513062
185	0x3ed622ad	0.4182333
186	0x3e135316	0.14387164
187	0xbdf51ff0	-0.11968982
188	0xbec3f07a	-0.38269407
189	0x3e4cf824	0.20016533
190	0x3f03395b	0.5125939
191	0x3ef4a58e	0.47782558
192	0x3f3484aa	0.7051493
193	0x3f1fd78c	0.62438273
194	0x3ed82a74	0.4221989
195	0x3ef11936	0.47089547
196	0xbd9b595e	-0.07585405
197	0xbe2d4a19	-0.16922797
198	0x3f03c419	0.51471096
199	0xbee9f3d4	-0.4569384
200	0x3e6fdcdc	0.23424095
201	0x3f2d9b65	0.6781524
202	0x3e9b3dac	0.3032049
203	0x3f17cc3a	0.59296
204	0x3ef44e27	0.47715876
205	0x3f3c0ab6	0.73453844
206	0x3ec8ccfb	0.39218888
207	0x3f1a9dab	0.6039683
208	0xbef5ec88	-0.48032022
209	0xbf2e81bd	-0.68166715
210	0xbe82cb37	-0.25545666
211	0x3ef9a384	0.48757565
212	0x3e0dca65	0.13846739
213	0x3eeadb8e	0.45870632
214	0x3f09f873	0.5389473
215	0xbea68e15	-0.32530275
216	0xbe11fe4b	-0.14257161
217	0x3f0413bd	0.5159262
218	0x3f218cc0	0.6310539
219	0x3f1f869b	0.62314767
220	0x3eab014c	0.33399427
221	0x3ea1dd06	0.3161394
222	0x3ef8a725	0.4856502
223	0xbe291427	-0.16511594
224	0xbdfb7355	-0.12277857
225	0x3ed114c1	0.40836146
226	0xbe8610f6	-0.26184815
227	0x3f5127cc	0.8170135
228	0x3eba4752	0.36382538
229	0x3f09e552	0.5386554
230	0x3ed10cb1	0.40829995
231	0x3ee0911c	0.4386071
232	0x3f1d9d31	0.6156798
233	0x3ec9cd8c	0.39414632
234	0x3f16e62b	0.5894496
235	0xbc8f5577	-0.017496808
236	0xbe8a10d1	-0.26965955
237	0x3ecaf7d2	0.39642197
238	0x3ec45c1e	0.3835153
239	0x3f10bdec	0.565398
240	0x3f108f62	0.56468785
241	0xbe123388	-0.1427747
242	0xbd8e2cfa	-0.06942172
243	0x3edc685c	0.4304837
244	0x3ef6a3dc	0.4817189
245	0xbe5d132b	-0.21589343
246	0xbec317a0	-0.38103962
247	0xbf0439a1	-0.51650435
248	0x3f69a303	0.9126436
249	0xbdf0b34d	-0.11752949
250	0xbe551f9f	-0.20812844
251	0x3c604bf5	0.013689985
252	0x3d1ee083	0.03878833
253	0xbddf3ac0	-0.108998775
254	0xbeab2762	-0.33428484
255	0x3d8af0ab	0.06784185

l1.bias f4 [8]
0	0x3f51cae8	0.81950235
1	0x3f19705f	0.5993709
2	0x3f39c2df	0.72562975
3	0x3f60e1ea	0.8784472
4	0x3f341eb4	0.7035935
5	0x3f0b5e74	0.54441
6	0x3f396657	0.72421783
7	0x3f53bba4	0.8270819

l2.weight f4 [8, 8]
0	0x3fa593cd	1.293573
1	0xbeee0825	-0.4649059
2	0xbd62580a	-0.05525974
3	0x3faed2d2	1.3658087
4	0xbe6522d7	-0.22376572
5	0x3f356e23	0.7087118
6	0xbf76a4f5	-0.96345454
7	0x3f43b220	0.7644367
8	0x3ede96a9	0.4347432
9	0x3fa09d45	1.2547995
10	0x3fbc7fa4	1.4726453
11	0x3f00748b	0.5017783
12	0xbfb7a9f9	-1.4348747
13	0x3f8dfa31	1.1091977
14	0xbe9421fa	-0.28932172
15	0x3ecabc91	0.3959699
16	0xbef86d2e	-0.48520797
17	0xbe0a1156	-0.13483176
18	0xbcd31ee5	-0.025771568
19	0x3f4f525a	0.80985034
20	0x3e11e209	0.14246382
21	0x3fa8ffef	1.3203105
22	0xbfb5e83f	-1.4211501
23	0xbf6ede29	-0.9330774
24	0xbf03f3d8	-0.5154395
25	0xbf3f6f55	-0.74779254
26	0x3f5b0f95	0.8557065
27	0x3f6d58ca	0.92713606
28	0x3f407790	0.7518244
29	0xbf46b4b5	-0.7761949
30	0x3ea35646	0.3190176
31	0xbf567ef7	-0.8378748
32	0x3fbaa849	1.4582607
33	0x3e7ebf2c	0.24877614
34	0x3e1d751c	0.15376705
35	0x3f0e103a	0.5549351
36	0x3fa5d46f	1.2955455
37	0xbf751206	-0.95730627
38	0x3f93859e	1.1525152
39	0x3fd04735	1.6271731
40	0xbdf669dc	-0.1203191
41	0xbf335ec6	-0.7006649
42	0x3fa7af09	1.3100291
43	0x3ed1aa17	0.4095008
44	0xbea935f0	-0.33048964
45	0x3ea402c0	0.32033348
46	0xbf7ccf71	-0.9875403
47	0xbee86294	-0.4538771
48	0xbb0d2ccd	-0.0021541596
49	0xbf9d1ee5	-1.2275053
50	0x3ee45e13	0.44603023
51	0x3f33ab3e	0.7018317
52	0x3f6e3247	0.9304547
53	0x3e0cd70a	0.13753906
54	0xbde49b8d	-0.111624815
55	0xbf2d0d13	-0.67598075
56	0xbf725399	-0.9465881
57	0x3dc66348	0.09686905
58	0x3fb9b38c	1.4507918
59	0x3edaaf11	0.4271169
60	0x3e30e6e5	0.1727558
61	0xbe92b3e4	-0.2865287
62	0x3dff49bf	0.12465238
63	0xbf5246ff	-0.8213958

l2.bias f4 [8]
0	0x3eeab3af	0.45840213
1	0x3e62c4a8	0.22145331
2	0x3dd67f3c	0.10473487
3	0x3eac654b	0.3367103
4	0x3f053896	0.5203947
5	0xbea7f11a	-0.32801133
6	0xbd36ac0f	-0.04459768
7	0xbc1b0e6c	-0.009463888

l3.weight f4 [10, 8]
0	0x3f3be086	0.7338947
1	0xbf88fd53	-1.0702308
2	0xbf1e949b	-0.61945504
3	0x3df60f14	0.12014595
4	0x3e818b99	0.25301817
5	0xbf25d9cc	-0.64785457
6	0x3ea122cd	0.31471863
7	0xbf8f7f0c	-1.1210647
8	0xbe79f5f2	-0.24410227
9	0xbeff0fc2	-0.4981671
10	0xbf055599	-0.52083737
11	0x3f0e1054	0.55493665
12	0xbf23e007	-0.64013714
13	0x3f0f3b20	0.5594959
14	0x3d0bf8b2	0.03417272
15	0x3ef9dc38	0.48800826
16	0xbfd39407	-1.6529549
17	0x3e06dde7	0.13170587
18	0xbee746a9	-0.45171097
19	0xbf847942	-1.0349505
20	0x3f30bbdc	0.6903665
21	0xbf50c37d	-0.8154829
22	0xbf617dc7	-0.88082546
23	0xbfaf7c75	-1.3709856
24	0xbe2ba271	-0.16761185
25	0xbfe27761	-1.7692682
26	0xbefa98ca	-0.48944694
27	0xbf9f7d8c	-1.2460189
28	0x3f8f566d	1.119825
29	0xbe8ed525	-0.2789699
30	0xbfab5858	-1.3386335
31	0xbf8e8b8b	-1.1136335
32	0x3f517010	0.8181162
33	0x3f1757ca	0.5911833
34	0xbfa62e27	-1.2982835
35	0xbf8b5b95	-1.0887324
36	0xbe93e237	-0.28883526
37	0xbf5349a7	-0.8253426
38	0xbf832fbb	-1.0248941
39	0xbf9f1ba8	-1.2430315
40	0xbf88c342	-1.0684588
41	0x3f33e85a	0.70276415
42	0xbfb146d1	-1.3849736
43	0x3ce76908	0.028248325
44	0xbf8430ba	-1.032737
45	0xbec8e6b8	-0.39238524
46	0xbf5d808c	-0.8652427
47	0x3f6deb6f	0.9293737
48	0x3e39f593	0.18160085
49	0x3ec830f6	0.39099854
50	0x3e210113	0.15723066
51	0xbfd3a82d	-1.6535698
52	0xbfb91ba1	-1.4461557
53	0x3f01f698	0.507669
54	0xbf86efd1	-1.0541936
55	0x3ea973ae	0.3309607
56	0x3f1f5b74	0.6224892
57	0x3e5c6ead	0.21526594
58	0x3f78dd0c	0.9721229
59	0xbf51155f	-0.81673235
60	0xbfc0d543	-1.5065082
61	0xc00b9bc1	-2.1813815
62	0xbf2d9dc7	-0.67818874
63	0xbf690dff	-0.9103698
64	0x3e8f1abc	0.27950084
65	0xbe9e4fbb	-0.30920205
66	0x3ef9225c	0.48659027
67	0xbe71918f	-0.23590682
68	0xbfc15e77	-1.5106953
69	0x3f179f4e	0.59227455
70	0x3f2644fe	0.64949024
71	0xbe449eeb	-0.19201247
72	0xbe807474	-0.25088847
73	0xbf91bdf6	-1.1386096
74	0xbfb2fce6	-1.3983428
75	0x3f50ed21	0.8161183
76	0xbd3633eb	-0.044483107
77	0xbfca9455	-1.5826517
78	0x3f1e3a8d	0.6180809
79	0x3f1080da	0.5644661

l3.bias f4 [10]
0	0xbf08ffc4	-0.5351527
1	0xbec37ae4	-0.38179696
2	0x3f9a8040	1.2070389
3	0x3dbf502c	0.093414634
4	0xbeb7e885	-0.35919586
5	0x3e82b2ba	0.25526983
6	0xbeb8512d	-0.35999432
7	0x3e5dc026	0.2165533
8	0xbe76dd89	-0.24107946
9	0xbdfdad63	-0.123865865
