data.pth (torch, 5802 bytes, 6 tensors)

l1.weight f4 [8, 60]
000000 83 7c e6 3e 70 8e d2 3e 3d 98 ed be d8 b1 d2 3e
       0.4501687 0.41124296 -0.4640521 0.4115131
000010 c5 c8 ad 3e 55 9c 0f be 51 c5 67 be 29 33 49 be
       0.33942237 -0.1402448 -0.22633864 -0.19648422
000020 94 6b 92 3f 1a e9 20 bd ef ac 73 be 3b a0 c7 be
       1.143908 -0.039284803 -0.23796438 -0.38989434
000030 6a f8 b8 be 3e 57 8c be e8 8f 9d be 3f 48 81 3d
       -0.36127025 -0.2741031 -0.30773854 0.06312608
000040 2a 68 39 3c 24 78 16 3f 9f d4 70 be c6 ed 82 3f
       0.011316339 0.5877707 -0.23518609 1.0228813
000050 75 1b 62 be 45 7d 06 bf 4f 16 dc 3e 64 a0 02 bf
       -0.22080787 -0.52534896 0.4298577 -0.51025987
000060 ea 42 fa be a7 7f 4a bf b7 3b 0b be d4 2a 03 be
       -0.48879176 -0.7910103 -0.13596998 -0.12809306
000070 37 ab 43 3f a0 78 34 3f 08 8f 25 3f e5 b1 68 3e
       0.7643313 0.7049656 0.64671373 0.22724111
000080 40 3f 50 3d a6 00 b2 3e 22 29 1a bf c0 16 07 3f
       0.05084157 0.3476612 -0.60219014 0.5276909
000090 16 a4 1c bf 70 80 a6 be bc c2 f2 be 95 ca ba 3e
       -0.61187875 -0.32519865 -0.47414196 0.36482683
0000a0 0a 4c 5f be 0d b9 bb bd 8c ca 84 3e f1 62 32 3f
       -0.2180635 -0.09166155 0.2593578 0.6968222
0000b0 eb 73 0c 3f b8 4e a8 be bb ce 00 3f eb eb 55 3f
       0.54864377 -0.32872558 0.50315446 0.8356311
0000c0 c0 b7 08 3f ca e6 68 b9 ea 0c 88 3c 83 15 8d bc
       0.5340538 -0.0002221122 0.01660772 -0.017222172
0000d0 63 ec 9f 3e 62 97 05 3e e2 20 c4 bc a5 87 1c be
       0.31235036 0.13046029 -0.023941461 -0.1528612
0000e0 bb 04 9a 3e c2 2d a0 bd 85 11 c5 3e 44 e3 03 3e
       0.30081734 -0.078212276 0.3848993 0.12879664
0000f0 68 80 87 be 6d ca 57 3d 73 9c 28 3f cb 0a 33 bf
       -0.26465154 0.052683283 0.6586372 -0.69938344
000100 7b a7 ca be 4d cd d3 3e 6e 77 29 3f 6e af 1f 3f
       -0.39580902 0.4136757 0.6619786 0.6237706
000110 42 a4 33 3f d4 a4 f7 be 46 97 d6 be 6f 09 d2 3e
       0.7017251 -0.4836794 -0.41912287 0.41022822
000120 b6 57 2b 3f df f8 da 3e a3 e3 be 3e 2a 5f 2f be
       0.6693071 0.42768 0.37283048 -0.17126146
000130 28 82 ec 3e 47 ca 7a be 19 2d 06 3f db 1f 33 3f
       0.4619305 -0.24491225 0.52412564 0.6997048
000140 e4 ab 0e bf ce 8b 27 3f 2a 8d 1d be 9f 02 49 3f
       -0.55731034 0.654477 -0.15385881 0.78519624
000150 86 f0 3c 3f 12 5c aa 3e b0 8a d5 be 5e 0d 15 3c
       0.7380451 0.3327337 -0.41707373 0.009097425
000160 6e df a1 be 2e 48 8d be ec 6e db 3e cf cf 84 bd
       -0.31615776 -0.2759413 0.42858064 -0.06484949
000170 d7 7b cb 3e 4a e5 c4 be ac d7 30 3f ac 6c a4 bd
       0.3974292 -0.38456184 0.6907909 -0.0802854
000180 b5 f4 ba 3e c2 87 a3 be cc 68 28 3f 1b d7 48 bf
       0.36514822 -0.31939512 0.6578491 -0.78453225
000190 64 b4 02 be f6 16 44 bd fb d0 c9 be ae 4e be 3e
       -0.12764126 -0.04787346 -0.39417252 0.37169403
0001a0 0d 98 e3 bd 29 4a b8 3e cd fc 1c be f4 63 21 bf
       -0.11112986 0.3599408 -0.15330811 -0.6304314
0001b0 d8 42 5a be a0 2b b8 be 58 21 e1 3e eb dd 14 be
       -0.21314561 -0.35970783 0.43970752 -0.1453778
0001c0 2e ff b7 be 59 8a 37 bd cc 59 8d be cb 63 03 3f
       -0.35936874 -0.044809673 -0.27607572 0.51324147
0001d0 7b 1d b0 3e 2b a1 b0 bd 2e db b8 3e 0a cd 1f bf
       0.34397492 -0.0862449 0.3610472 -0.6242224
0001e0 76 2b fe 3e fa a3 d9 3e 97 d1 9c be 0f 3b 0b bf
       0.49642533 0.42507917 -0.30628654 -0.5438699
0001f0 9c dd 8f be 2c ce f6 bd 1a 9c 1f 3e 58 40 9f 3e
       -0.28098762 -0.12051043 0.15586892 0.31103778
000200 e3 c8 f8 be ce 67 dd 3e eb af 3c 3e fb 42 56 be
       -0.48590764 0.4324326 0.18426482 -0.20923989
000210 30 3c fb be 4f 73 55 be 20 98 94 be 54 88 3b be
       -0.49069357 -0.20844768 -0.29022312 -0.18313724
000220 e2 1d c8 bc 70 23 10 bc dd 51 40 be 18 d7 f8 be
       -0.024428312 -0.008797511 -0.18781228 -0.48601604
000230 76 fa 11 3f 82 9d ed be ee 88 06 3f 94 76 e1 be
       0.570228 -0.4640923 0.5255269 -0.4403578
000240 68 65 e2 be bd f5 17 bf d7 90 41 3d ad 93 72 3e
       -0.44217992 -0.5935934 0.04725727 0.23689146
000250 3f 80 05 bf a7 6e c9 be 16 b1 d0 be 43 42 c0 3e
       -0.52148813 -0.39342234 -0.40760106 0.37550554
000260 7b ec 18 3e b2 32 a5 be 24 02 a8 be 62 78 3d be
       0.1493396 -0.3226524 -0.32814133 -0.18502954
000270 a6 60 11 bc d2 79 17 3f 04 44 f6 be 9e 20 db be
       -0.00887314 0.5917026 -0.48098767 -0.42798322
000280 fd ee 6c be 45 84 2d be 6f 40 9f be de 7c cc be
       -0.23138042 -0.16944988 -0.31103846 -0.39939016
000290 2a 51 95 bd 6b f2 5e be 8e 7c 69 be 8a fa 70 3f
       -0.072908714 -0.21772163 -0.2280142 0.9413229
0002a0 ee a1 c3 3e d0 f2 59 be 85 de c8 bd 4d 3b b4 bd
       0.3820948 -0.21284032 -0.09808067 -0.08800373
0002b0 53 b5 b3 be be 8e 17 be ff 2c 14 be cf 2f 98 3d
       -0.35099277 -0.14800546 -0.1447029 0.07430994
0002c0 fd 6f 7d 3f c2 89 a2 be 3e 5c a9 3e 6c 8d 1c 3f
       0.98999006 -0.31745726 0.33078188 0.6115329
0002d0 56 13 51 be 75 84 b7 3e 74 14 bf be 91 fd 27 bf
       -0.20417532 0.35843244 -0.37320292 -0.65621287
0002e0 24 39 df bd cb 49 4f 3e da 8a ec 3e 44 77 13 3f
       -0.108995706 0.20242994 0.46199685 0.5760386
0002f0 95 57 79 3f 98 6c 1c 3d 88 64 b9 bd 05 ce 5d be
       0.97399265 0.0381895 -0.09052378 -0.21660621
000300 c9 26 1f bf 4d de 1c be 10 c3 3d be f4 0b ae be
       -0.62168556 -0.15319176 -0.18531442 -0.33993495
000310 c9 ed 8a 3e f2 89 51 bd 49 91 27 bd 35 1f 8d 3f
       0.2713454 -0.051156946 -0.04091004 1.1025149
000320 e6 50 ca 3e ef 55 3e be b5 0a 1f 3e 44 1d 50 be
       0.39514846 -0.18587469 0.15531428 -0.20323664
000330 8c eb 27 be 49 62 df 3e 63 70 97 3d 09 aa e9 be
       -0.16398448 0.43629673 0.07394483 -0.4563754
000340 db fa e8 be f5 ef a2 be 4e 3e 1c 3f f9 77 0d 3e
       -0.45503888 -0.31823698 0.6103257 0.13815297
000350 15 8d f3 3e 40 7b 30 be 91 32 88 be a7 5e 47 be
       0.47568575 -0.17234516 -0.2660108 -0.19469701
000360 3f 92 20 bf c2 68 c3 bc 8a 9b 4c bf f9 aa 24 bf
       -0.62723154 -0.023853663 -0.79924834 -0.64323384
000370 95 63 7a be 90 1f d5 bd 20 7d 5b be ff 50 08 3f
       -0.2445205 -0.10406411 -0.2143445 0.5324859
000380 3c a5 7f bd 05 cd 8a be de ba 67 be 81 6a 0b be
       -0.06241344 -0.27109542 -0.22629878 -0.13614847
000390 8b 79 aa bc 14 d0 d4 be 39 b7 c1 3e f1 1e 9c bd
       -0.02080991 -0.41565 0.378351 -0.07623089
0003a0 7d 35 9b be de c6 85 be a2 78 ac be ff c6 9e 3e
       -0.30314246 -0.26128286 -0.33685786 0.31011197
0003b0 f7 a2 16 3f 64 2d 21 be fd e6 eb 3e 2e c2 a3 3e
       0.58842415 -0.15739971 0.46074668 0.31984085
0003c0 60 e7 47 3f 53 02 11 3f 43 22 76 3e 04 0e d7 be
       0.78087425 0.5664417 0.24036507 -0.4200288
0003d0 65 61 cf be eb 4a 81 be 4e 3a 1f 3d d0 cc 1f 3f
       -0.40503994 -0.2525247 0.038873963 0.62421894
0003e0 b0 79 09 bf 5f 2a e5 be 80 b6 0f bf 34 09 23 3e
       -0.53701305 -0.4475889 -0.5613785 0.1592148
0003f0 2d 7c 9c 3e 96 62 74 3e a1 8a 69 be 9e c6 d5 bd
       0.3056349 0.23865733 -0.22806789 -0.10438274

l1.bias f4 [8]
000000 0d ca 42 3f e4 62 21 3f ec 9e f8 3e 0e c6 04 3f
       0.76089555 0.6304152 0.48558748 0.5186471
000010 b3 99 15 3f a6 f7 96 3f 71 36 1e 3f 40 b6 3c 3f
       0.5843765 1.1794326 0.6180182 0.7371559

l2.weight f4 [8, 8]
000000 0e dd ed bd fd 13 7c be e0 aa c2 bc 00 7f cf 3a
       -0.116144285 -0.24617 -0.02376312 0.0015830696
000010 cf 6b ac be 98 89 36 bd a0 a1 24 bd a0 82 d5 bd
       -0.33676 -0.044564813 -0.0401932 -0.10425305
000020 6a 96 39 3e 5c 5f 3a 3f a8 91 cd bf 7d 7f 00 3e
       0.18123785 0.72801757 -1.6060076 0.12548633
000030 69 16 7c bf 46 0d b0 3f 19 9e e3 bd 55 e9 30 3f
       -0.98471695 1.3754051 -0.11114139 0.69106036
000040 a3 96 b1 bf bf 80 83 3f e0 52 07 bf 4d 3f 5f bf
       -1.3874096 1.0273665 -0.5286083 -0.87205964
000050 aa 1d f9 3e 6b f6 6d 3f 4d 66 de 3e 81 e3 b2 3f
       0.48655444 0.9295413 0.43437424 1.3975679
000060 a8 30 85 3e 4e a5 c9 3e 83 b1 89 bf 4f 72 9c bf
       0.26013684 0.3938393 -1.0757297 -1.2222384
000070 66 b0 63 3f 6a e3 04 bf fc e0 ad 3f 41 3a d2 3e
       0.8894104 -0.51909506 1.3584285 0.4106007
000080 13 23 4d 3f e7 43 99 3f dc f7 6c 3d 0f 4b 7e 3f
       0.80131644 1.1973847 0.057853565 0.9933328
000090 75 44 85 3f 45 9a 8e 3f d2 d9 34 bf b9 81 8e bf
       1.0411516 1.1140829 -0.7064487 -1.1133338
0000a0 5c 87 a5 3f 12 89 20 bf 4c a7 4a bf 26 cf 4d 3e
       1.2931933 -0.6270915 -0.79161525 0.20098552
0000b0 a7 8a 43 3e 64 ac 09 3f 4e 8d 5b 3f 63 3a dd be
       0.1909586 0.5377867 0.8576249 -0.43208608
0000c0 be 05 64 be fa 15 5a 3e 14 ec 3c 3e 2b ea 4f 3e
       -0.22267815 0.21297446 0.18449432 0.20304172
0000d0 60 6e 72 be 5b e5 5e be 5a 08 d7 3b ed e4 21 be
       -0.23674917 -0.2176718 0.006562275 -0.15809985
0000e0 6f df 51 3f c0 ec 80 bf 8e 81 93 3e d7 80 62 bf
       0.8198156 -1.007225 0.2880978 -0.88477844
0000f0 7f 1e 08 3f a7 9b a7 3f 64 64 66 3f b0 07 1a bf
       0.53171533 1.3094376 0.89996934 -0.6016798

l2.bias f4 [8]
000000 bd 22 63 be 06 13 37 3f b0 e5 08 3f e0 e3 66 3e
       -0.2218122 0.715134 0.53475475 0.22547865
000010 35 52 b2 3e 10 ce 65 bd 7a b5 92 be 14 28 05 3f
       0.34828344 -0.05610472 -0.2865408 0.5201428

l3.weight f4 [10, 8]
000000 4d ba 8e be fb 9a b6 3e e5 fe 56 bd 87 e5 f5 be
       -0.2787651 0.35665116 -0.05248918 -0.48026678
000010 75 63 96 bf 7f 63 06 3f 6f 3c 80 3e d3 89 ac 3e
       -1.1749102 0.5249557 0.25046107 0.33698902
000020 40 3e 11 bd 14 e4 aa bf f9 d9 ee 3d 64 ea 5f 3f
       -0.035459757 -1.3350854 0.11662669 0.87467027
000030 ec 7c a0 bf 25 c0 3c be 51 24 11 be fd 4e 3a 3e
       -1.2538123 -0.18432672 -0.1417401 0.18194194
000040 c2 77 63 3e df b7 68 bf fc 34 9e bf 6c bb ff 3e
       0.22213653 -0.90905565 -1.235992 0.4994768
000050 85 31 b2 be b5 24 0b 3f 74 08 a1 3e da 32 b0 3e
       -0.34803405 0.54352885 0.31451762 0.34413797
000060 32 c7 7d 3e d3 f3 33 3f 8d dc 9c bf 8d 45 8c bf
       0.24783018 0.7029392 -1.2254807 -1.0958725
000070 62 c9 dd 3e 24 eb 61 3e 17 ae 01 be 79 fa ac be
       0.43317705 0.22062355 -0.12664066 -0.33784845
000080 9f b0 a9 3e d0 ae 7b 3f e3 61 be 3e e8 6b b9 bf
       0.33142564 0.9831362 0.37184057 -1.4486055
000090 cc 20 c4 bc 4d f6 e4 bf d1 cc 80 3e db c0 7f be
       -0.02394142 -1.7887665 0.25156263 -0.24975912
0000a0 80 d7 5e 3b 70 ab 91 bf 78 74 85 bf 92 63 2b bf
       0.003400296 -1.1380444 -1.0426168 -0.6694881
0000b0 57 bb 94 3f 0c 3a 76 bf 4b 2e 7a be bb 9a 88 bf
       1.1619672 -0.9618232 -0.24431722 -1.067222
0000c0 cd 0d 20 be 47 71 d9 be 5e 01 77 bf 45 b1 ff be
       -0.15630265 -0.42469236 -0.9648646 -0.49939933
0000d0 bb c3 08 bf 93 93 0f bf d0 de e8 bd e0 31 07 bf
       -0.5342366 -0.56084555 -0.11370623 -0.5281048
0000e0 00 50 6a be 2d 5a 32 bf ff 41 a0 3f 48 ad d0 bf
       -0.2288208 -0.6966885 1.252014 -1.6302881
0000f0 aa e0 92 bf 37 43 09 bf f6 0d 7a bd 05 15 47 bf
       -1.1474812 -0.53618187 -0.06104847 -0.7776645
000100 5c bd d9 3d a9 e4 99 3e a3 9d db 3e 12 3c 29 3f
       0.106318206 0.30057266 0.42893705 0.66107285
000110 c2 c9 67 bf d1 44 9c bf f7 36 ef bc 7e 3f 8c bf
       -0.90542233 -1.2208501 -0.029201014 -1.0956876
000120 14 b0 53 be 19 8e 9b bf d8 eb 95 bf 10 4b cd bf
       -0.20672637 -1.215274 -1.1712599 -1.6038532
000130 62 6f 96 3e 16 43 2a 3e 92 39 13 3e 6b a7 80 3f
       0.29381853 0.16627154 0.1437743 1.0051092

l3.bias f4 [10]
000000 1c 5a 3b bf 65 7b 95 bf c0 56 85 bf e0 5a 63 bf
       -0.7318437 -1.1678282 -1.0417099 -0.8881054
000010 21 e2 a1 be 59 4a dd be 17 33 1b 40 70 19 8f be
       -0.31617835 -0.43220785 2.4249933 -0.27949095
000020 bd cf 35 bf 25 61 27 bf
       -0.7102011 -0.65382606
