data.pth (torch, 7487 bytes, 6 tensors)

l1.weight f4 [8, 97]
0	0x3d9aca0f	0.07558071
1	0xbf13fc39	-0.57806736
2	0x3ebf0c02	0.3731385
3	0xbe5f81ae	-0.21826813
4	0x3f0adb6a	0.5424105
5	0x3e635a7a	0.22202483
6	0x3edc461d	0.43022242
7	0xbf4218a3	-0.7581884
8	0xbf3261dd	-0.6968058
9	0xbe395bd5	-0.18101437
10	0xbc07bf04	-0.008285288
11	0xbebf5d79	-0.37376
12	0x3ed852d4	0.42250693
13	0x3f0ec6f0	0.55772305
14	0x3d9177ad	0.071029045
15	0xbf4d717b	-0.8025128
16	0x3ede70d4	0.43445456
17	0x3e66f57c	0.22554582
18	0x3fe2cee1	1.7719384
19	0xbdcbaa28	-0.09944564
20	0xbfa9643c	-1.3233714
21	0xbec01731	-0.37517694
22	0x3f1b7f6e	0.6074132
23	0x3e874acd	0.26424256
24	0x3eb78f4d	0.35851517
25	0x3ef73d8e	0.4828915
26	0x3ebb13d2	0.3653856
27	0x3e7cebbe	0.24699304
28	0xbe0436e7	-0.12911569
29	0x3dc7ce46	0.097561404
30	0x3fa5bf31	1.2948972
31	0x3f7c8661	0.98642546
32	0xbe3b77d3	-0.18307428
33	0xbd229112	-0.03968913
34	0x3f0206f5	0.50791866
35	0x3e827ad6	0.2548434
36	0x3f062780	0.5240402
37	0x3f1f3142	0.62184536
38	0x3f0c9460	0.549139
39	0x3e4c0514	0.19923812
40	0x3eefcab4	0.46834338
41	0x3ed5a2c6	0.4172575
42	0x3ec097b4	0.3761574
43	0x3eb33b29	0.35006073
44	0x3e38fc9d	0.18065114
45	0x3ee41dae	0.44553894
46	0xbebcadb5	-0.36851278
47	0xbf009362	-0.5022489
48	0x3ddc4a72	0.10756387
49	0xbe51ec04	-0.20500189
50	0x3e86175b	0.26189694
51	0x3ecc4af5	0.39900938
52	0x3fb55534	1.4166627
53	0xbbf5bd70	-0.0074993894
54	0xbeea1af9	-0.45723704
55	0xbdabf462	-0.08396222
56	0x3f0ac738	0.54210234
57	0x3efc47e8	0.4927361
58	0xbed69d85	-0.41917053
59	0xbec1cbbd	-0.37850752
60	0x3fab6fcd	1.3393494
61	0xbe5826bc	-0.21108526
62	0xbfbb642f	-1.4639949
63	0xbd80a7fb	-0.0628204
64	0xbf34f519	-0.7068649
65	0x3e92a610	0.2864232
66	0x3e8744cc	0.26419675
67	0x3f04da04	0.51895165
68	0xbf7d10a7	-0.98853534
69	0x3f822679	1.0167991
70	0x3d9d5e78	0.07684034
71	0x3e4424a4	0.19154602
72	0x3ed8f08a	0.42371017
73	0xbecda63b	-0.40165886
74	0x3fc661cc	1.5498595
75	0xbe85672f	-0.26055285
76	0xbea31bf0	-0.31857252
77	0x3dc7cc5f	0.097557776
78	0xbf47c9fa	-0.78042567
79	0xbef9d594	-0.4879576
80	0xbee260ab	-0.44214377
81	0x3f0263e8	0.50933695
82	0x3ecb894c	0.39753187
83	0xbe290719	-0.16506614
84	0xbeb44c29	-0.35214356
85	0x3f29576a	0.6614901
86	0x3f083d4a	0.5321852
87	0x3f0008a4	0.50013185
88	0x3d7989f3	0.060922574
89	0xbe2c9578	-0.16853893
90	0xbeab5277	-0.33461353
91	0xbf057725	-0.52134925
92	0x3e0fb6ed	0.14034624
93	0xbea73ed3	-0.3266512
94	0x3f39e9ed	0.7262257
95	0xbdef5ec8	-0.11688
96	0x3ea57772	0.32317692
97	0xbe31cf08	-0.17364132
98	0x3f630d56	0.88692224
99	0x3e2e0c77	0.16996942
100	0x3f6eefd8	0.9333472
101	0xbf108c29	-0.5646387
102	0xbeff8dd8	-0.49912906
103	0x3f15b7d0	0.584836
104	0x3dbf4c40	0.093407154
105	0xbddd21d4	-0.10797468
106	0xbea568a4	-0.32306397
107	0xbe645e11	-0.22301508
108	0x3d416ecd	0.04722481
109	0x3db6c803	0.08924868
110	0x3d98aca0	0.074548006
111	0xbf10faa9	-0.5663248
112	0x3eed1c6d	0.4631075
113	0x3e6c8a77	0.23099695
114	0x3f2fbfba	0.68651927
115	0xbf95b883	-1.1696934
116	0x3f6089dc	0.87710357
117	0xbf9311e1	-1.1489831
118	0x3f276e06	0.6540226
119	0x3f6d8eec	0.92796206
120	0x3dcfa5fb	0.1013908
121	0x3e589f20	0.21154451
122	0xbe27e3e7	-0.16395532
123	0x3a642196	0.00087025145
124	0x3e48d81b	0.19613688
125	0xbe169a62	-0.1470733
126	0xbf0f0f1c	-0.5588243
127	0x3e5d23f4	0.21595746
128	0x3eef95c2	0.46793944
129	0xbea4d025	-0.32190052
130	0x3df71486	0.120644614
131	0x3f628414	0.88482785
132	0x3ee9223b	0.45533928
133	0x3f5ff84d	0.8748825
134	0x3f4c7736	0.798694
135	0x3fa9498b	1.3225569
136	0x3e26f241	0.1630335
137	0xbcd25f1c	-0.025680117
138	0x3e8da8c1	0.27667812
139	0xbf235aca	-0.6381041
140	0xbf0163c2	-0.50542843
141	0xbe574320	-0.210217
142	0xbc3e7d6e	-0.011626584
143	0x3ec9e984	0.3943597
144	0xbe1e0811	-0.15432765
145	0xbeec9cae	-0.46213287
146	0x3f7e4404	0.99322534
147	0x3d28eb7c	0.0412402
148	0x3eb23b2e	0.34810776
149	0xbf7c9a75	-0.9867318
150	0xbd4bbaa6	-0.04973855
151	0x3f06440b	0.52447575
152	0x3f4c1bcf	0.7972993
153	0xbd1902da	-0.037356235
154	0xbec841b7	-0.39112636
155	0x3f1ab38a	0.60430205
156	0x3f190fff	0.59790033
157	0x3f5c2227	0.8598961
158	0x3e5fd898	0.21859968
159	0x3e6d3cdb	0.23167746
160	0xbe0a0410	-0.13478112
161	0xbe86d41e	-0.26333708
162	0x4002e9ec	2.0455275
163	0xbf01bbcb	-0.50677174
164	0xbe1da62a	-0.15395418
165	0xbec8d6b1	-0.39226297
166	0xbf9b2a63	-1.212231
167	0xbe3b785a	-0.18307629
168	0xbdd817d8	-0.10551423
169	0xbea51e3c	-0.3224963
170	0xbf241687	-0.64096874
171	0xbeabcf80	-0.33556747
172	0x3e045900	0.12924576
173	0x3f172c40	0.59051895
174	0xbe9211f5	-0.28529325
175	0x3fc698ea	1.5515416
176	0x3f38b6ff	0.7215423
177	0x3e9a33b0	0.3011756
178	0x3ee5ede1	0.4490805
179	0x3d9a6339	0.075384565
180	0x3f1c4c25	0.6105369
181	0x3e803d07	0.2504656
182	0x3f57f083	0.84351367
183	0xbd916acf	-0.0710045
184	0x3f40587c	0.75135016
185	0xbeeee5a1	-0.46659568
186	0x3f13cd96	0.57735574
187	0x3efbff0d	0.49218026
188	0xbd5e011c	-0.054200277
189	0x3e79d2aa	0.24396768
190	0x3f1f6b31	0.62272936
191	0x3f67664d	0.90390474
192	0x3e2d62a6	0.16932163
193	0xbeb48f5a	-0.3526562
194	0x3ec6b7b3	0.38812026
195	0xbe0e4631	-0.13893963
196	0x3ea67dce	0.32517856
197	0x3f099b19	0.53752285
198	0x3d94ce0e	0.07265864
199	0xbe047532	-0.12935331
200	0x3eeb2098	0.45923305
201	0xbe37e891	-0.17959811
202	0xbe263bbf	-0.16233729
203	0xbe39f233	-0.18158798
204	0xbeb41171	-0.35169557
205	0xbec85e96	-0.39134663
206	0x3ed45b5d	0.41475955
207	0x3f12dff8	0.57373
208	0xbe83a2fe	-0.2571029
209	0xbf81395d	-1.0095631
210	0x3f23f508	0.64045763
211	0x3f189949	0.59608895
212	0xbf202eee	-0.6257161
213	0x3ef3263d	0.4749011
214	0x3db4a41f	0.08820366
215	0x3e99d7c1	0.3004742
216	0x3f033d27	0.51265186
217	0xbe0adab3	-0.1355999
218	0x3f24de0e	0.6440133
219	0xbe51748f	-0.2045462
220	0x3eb47a9e	0.352498
221	0x3ec42bd3	0.38314685
222	0xbebd64d5	-0.3699099
223	0xbe7f5809	-0.24935926
224	0x3fe89ade	1.8172262
225	0x3f95c733	1.1701416
226	0xbe4ec04b	-0.20190541
227	0x3dac255c	0.08405563
228	0x3f56e12e	0.83937347
229	0x3e371518	0.1787914
230	0x3f2032df	0.62577623
231	0x3f49631f	0.7866687
232	0x3f6ab4e5	0.91682273
233	0x3eeb785f	0.45990273
234	0x3f52cfd1	0.8234835
235	0x3d2e9c40	0.04262948
236	0xbf4c3bcd	-0.7977875
237	0xbe96334c	-0.2933601
238	0xbd4cef84	-0.050033107
239	0x3f772e0c	0.96554637
240	0xbeb65991	-0.3561521
241	0xbe8b569c	-0.27214515
242	0xbd2e56bd	-0.04256319
243	0x3f297202	0.6618959
244	0x3dd651df	0.104648344
245	0x3eb52655	0.35380808
246	0x3f7aefce	0.9802216
247	0xbe9e7760	-0.3095045
248	0xbf153816	-0.58288705
249	0x3f222ad4	0.633466
250	0x3f340e7b	0.70334595
251	0xbdaef858	-0.085434616
252	0xbc86a5d4	-0.016436495
253	0x3cc1faf2	0.02367923
254	0x3f6347f4	0.88781667
255	0x3f53ebe1	0.827818

l1.bias f4 [8]
0	0x3f4db101	0.8034821
1	0x3f331659	0.69955975
2	0x3f760e49	0.9611555
3	0x3f5222cd	0.8208435
4	0x3f8a2a3e	1.0794141
5	0x3f498971	0.78725344
6	0x3f82479e	1.0178106
7	0xbdbd25e8	-0.09235746

l2.weight f4 [8, 8]
0	0xbeef4e44	-0.467394
1	0x3e46a7c9	0.19399942
2	0x3d118d64	0.03553523
3	0xbf0b13d9	-0.5432716
4	0x400ae6d3	2.1703384
5	0x3fc2a836	1.5207584
6	0xbfbfd972	-1.4988234
7	0x3e9c8462	0.3056975
8	0x3f432c8b	0.7623984
9	0xbfc004b3	-1.5001434
10	0x3f3f2cb3	0.7467758
11	0xbeaa647e	-0.33279794
12	0x3f1bb606	0.6082462
13	0x3fc74aa4	1.5569654
14	0x3eca0d91	0.39463475
15	0x3ceced5c	0.028921776
16	0x3fb9efad	1.4526268
17	0x3ed249c0	0.41071892
18	0x3f4f71c8	0.8103299
19	0x40481685	3.1263745
20	0xbf956257	-1.1670636
21	0x3f34c549	0.70613533
22	0x4016ff1b	2.3593204
23	0x3e8fc149	0.28077152
24	0x3fa3357e	1.27507
25	0x3fb0b5b6	1.3805454
26	0x3fdd3e6c	1.7284675
27	0x3f624bcd	0.8839691
28	0x3eab5355	0.33462015
29	0xbf513361	-0.81719023
30	0xbf2c0e0f	-0.6720895
31	0x3ea1d03d	0.31604186
32	0xbdfdd01c	-0.12393209
33	0xbe41d595	-0.18929131
34	0xbe7d340c	-0.24726886
35	0x3eadca01	0.3394318
36	0x3dae8e74	0.085232645
37	0xbe9e4a84	-0.30916226
38	0xbea5aaed	-0.3235697
39	0xbe469141	-0.19391347
40	0x3e301cc7	0.17198478
41	0x400123cf	2.0178106
42	0x3ebea4d1	0.3723512
43	0xbfc0621f	-1.5029944
44	0x3f0802fa	0.5312954
45	0xbf487e78	-0.78317976
46	0x3fedf6d5	1.8590952
47	0xbe598886	-0.21243486
48	0xbe3c9496	-0.18416056
49	0x3e7b8001	0.24560548
50	0xbe54a99f	-0.2076783
51	0xbd49ab10	-0.049235404
52	0xbe858353	-0.26076755
53	0x3d508ba8	0.050914437
54	0xbe017546	-0.12642393
55	0x3d3c4118	0.045960516
56	0xbf9de8cb	-1.2336668
57	0x3f1f0184	0.6211169
58	0x3f943f73	1.1581863
59	0x3eedbaab	0.4643148
60	0x3e93c02c	0.28857553
61	0x3eced875	0.4039952
62	0xbf3a47c0	-0.7276573
63	0x3ea4bc6d	0.32175007

l2.bias f4 [8]
0	0x3fa6c551	1.3028966
1	0xbde137d2	-0.10996975
2	0x3f43c995	0.76479465
3	0xbedfa7d2	-0.43682724
4	0xbe327540	-0.1742754
5	0x3ef17e61	0.47166732
6	0xbe36a143	-0.17834954
7	0xbe1dcc80	-0.15410042

l3.weight f4 [20, 8]
0	0xbf8f7871	-1.1208631
1	0x3ec7f947	0.3905737
2	0x3f9bf4ba	1.218406
3	0xc01c2d84	-2.440278
4	0x3e981f07	0.29711172
5	0xc051eaa9	-3.2799475
6	0x3c9af714	0.018916644
7	0xc0237707	-2.5541399
8	0x3edf2ae8	0.43587422
9	0x3ecff625	0.4061748
10	0xbf72e631	-0.94882494
11	0xbf2ae41a	-0.66754305
12	0x3e92814b	0.28614268
13	0xc07dd34b	-3.9660213
14	0x3e521cdb	0.2051882
15	0x3f9a60da	1.2060807
16	0xbf45f7bb	-0.7733113
17	0x3f14bab1	0.5809737
18	0x3f2af02c	0.66772723
19	0xbe77e394	-0.24207908
20	0x3d555668	0.052084357
21	0xc009090e	-2.1411777
22	0x3cd5e934	0.026112176
23	0xc03683d8	-2.851797
24	0xbf815f77	-1.0107259
25	0xbed3bcdd	-0.4135503
26	0x3f254538	0.64558744
27	0x3ed15b7c	0.4089011
28	0x3df92bcc	0.12166557
29	0xbfa89612	-1.3170798
30	0xbccd8142	-0.025086049
31	0x3f0c595c	0.5482385
32	0xbed1ac3f	-0.40951726
33	0x3e9ffd44	0.31247914
34	0xbcfc5c36	-0.030805688
35	0xbdbc74e2	-0.09201981
36	0xbd9203e4	-0.07129648
37	0xbf01d6c2	-0.5071832
38	0x3d2a6d59	0.04160819
39	0xbe187e38	-0.14891899
40	0x3e0f0e69	0.13970341
41	0x3eef16af	0.46696994
42	0xbcb55237	-0.02213393
43	0x3dbce9d6	0.09224288
44	0xbeb33263	-0.3499938
45	0xc03f5441	-2.9895175
46	0xbd268aac	-0.04065959
47	0xbf4a4757	-0.79015106
48	0xbfca6e86	-1.5814979
49	0xbe1a5166	-0.15070114
50	0x3ca6cdcc	0.020361803
51	0x3f02f040	0.5114784
52	0x3dac4108	0.08410841
53	0x3eebd2bf	0.46059224
54	0xbdd2cfeb	-0.102935635
55	0xbf6f366a	-0.93442404
56	0x3e54fbbd	0.20799156
57	0x3e1c3cac	0.1525752
58	0xbf957399	-1.1675903
59	0xbcbf9c7c	-0.023390047
60	0xbe676190	-0.22595811
61	0xbf979a00	-1.1843872
62	0x3e636019	0.22204627
63	0x3f3a5f05	0.7280124
64	0xbe0a4a08	-0.13504803
65	0xbee55adb	-0.4479588
66	0xbd93279f	-0.071852915
67	0x3e89e932	0.26935726
68	0xbea1e746	-0.3162176
69	0xbea8b91b	-0.32953724
70	0x3d17c6b6	0.03705474
71	0xbda6b76d	-0.081404544
72	0xbf6362cc	-0.8882263
73	0xc02e123f	-2.7198637
74	0xbdf2e74f	-0.11860525
75	0x3e9ebdbd	0.31004134
76	0xbe5ae584	-0.21376616
77	0x3efbdc30	0.49191427
78	0xbe291847	-0.16513167
79	0x3f5c092f	0.85951513
80	0x3e54105e	0.20709369
81	0xbe018515	-0.12648423
82	0x3f44b224	0.7683432
83	0xc0075a12	-2.1148725
84	0xbe473a16	-0.19455752
85	0xc0227d96	-2.5389152
86	0xbeb344b3	-0.3501335
87	0x3ef5bc7e	0.4799537
88	0x3f428079	0.75977284
89	0x3f1e4f4a	0.61839736
90	0xbebf78e6	-0.37396926
91	0xc01f8c80	-2.4929504
92	0xbeac4374	-0.33645213
93	0xc05b1f6e	-3.4237933
94	0x3e9a0fa9	0.30090073
95	0xbfca8d91	-1.5824453
96	0xbff59313	-1.9185508
97	0x3e7db41f	0.24775742
98	0x3f4dc650	0.80380726
99	0xbfa8611c	-1.3154635
100	0x3eb01195	0.34388414
101	0x3e1d0d15	0.15337022
102	0xbd0ebdc7	-0.034848955
103	0xbfc2a4ee	-1.5206583
104	0xbfe60006	-1.7968757
105	0xc01a8bd9	-2.4147856
106	0x3f66ee90	0.9020777
107	0x3f405e19	0.7514358
108	0x3d862de8	0.06551725
109	0xbe1e792f	-0.15475915
110	0xbe08c567	-0.13356553
111	0xbe6b7d3b	-0.2299699
112	0x3f10b077	0.56519264
113	0x3d9d91bb	0.076938115
114	0xbeff83b2	-0.49905163
115	0xc0335c3d	-2.8025048
116	0xbe5b8881	-0.21438791
117	0xbebc40c2	-0.36768156
118	0xbca2d6f0	-0.01987788
119	0xbe5735fc	-0.21016687
120	0x3f39c2b0	0.72562695
121	0xbef31509	-0.47476986
122	0xc03c6e68	-2.9442387
123	0xbd84ef12	-0.064909115
124	0xbe2a54c1	-0.16633894
125	0xbdba9eb2	-0.091123
126	0x3e99fad1	0.3007417
127	0xbf617f00	-0.8808441
128	0x3f195377	0.5989298
129	0xbf5c321f	-0.8601398
130	0x3ddf8bc0	0.10915327
131	0xbf0eef0a	-0.55833495
132	0xbe811a31	-0.25215295
133	0xba0a17dd	-0.0005267838
134	0x3dc5b9fb	0.096546136
135	0xc0717a0a	-3.7730737
136	0x3de3c910	0.11122334
137	0xc008b43f	-2.1360013
138	0xc01a1f9f	-2.40818
139	0x3f344322	0.70414937
140	0xbe85b204	-0.26112378
141	0x3d8e73a7	0.06955653
142	0xbebd6598	-0.36991572
143	0x3f6dc0e5	0.9287246
144	0x3f556a2c	0.8336513
145	0x3eeae3d5	0.45876947
146	0xc0231090	-2.547886
147	0xc040b6e5	-3.011163
148	0xbdb30344	-0.08740857
149	0xc004b1bc	-2.073348
150	0xbe855b75	-0.2604634
151	0x3f85eb0c	1.0462356
152	0xbfe36e51	-1.7768041
153	0xc02828b8	-2.6274853
154	0x3f17bffd	0.59277326
155	0xbf02070d	-0.5079201
156	0xbe8a4bc2	-0.27010924
157	0x3f8574b5	1.0426241
158	0x3dff5ab3	0.124684714
159	0xbff6e34b	-1.9288114

l3.bias f4 [20]
0	0x3e6f5b7c	0.23374742
1	0xbedb8789	-0.42876843
2	0xbecd283f	-0.40069768
3	0xbeb6b2b6	-0.3568322
4	0xbe327134	-0.17425996
5	0xbf00b0ee	-0.50269973
6	0xbf1f21f7	-0.621612
7	0xbf1c964f	-0.6116685
8	0xbea0a418	-0.31375194
9	0xbd43d2e2	-0.047808535
10	0x3eec2bdd	0.46127215
11	0x3e30725b	0.17231123
12	0x3f1a05ba	0.6016499
13	0x3f0e9392	0.55693924
14	0x3e91a913	0.28449306
15	0x3ed1a78a	0.40948135
16	0x3f581392	0.8440486
17	0xbd863656	-0.065533325
18	0x3e9dda29	0.30830505
19	0x3e4b1edb	0.19835989
