data.pth (torch, 7146 bytes, 6 tensors)

l1.weight f4 [8, 82]
-0.48802635 0.46821073 -0.3276544 -0.5268795 -0.41232648 0.06261362 0.19376616 0.49748182
0.66681486 0.9554016 1.1838895 0.54598063 0.1624387 0.03060283 -0.70104736 -0.45212755
0.86610097 -0.4452042 0.3736947 -0.17978561 0.19165425 -0.05684802 0.808362 -0.010959679
0.38100615 0.30479217 0.3145309 0.46289018 0.21054733 0.49928308 0.74267817 0.4734212
0.3452912 0.45927835 0.2846016 0.7547238 -0.6280852 -0.49327195 0.3886701 -0.04897184
0.40811035 -0.3680259 -0.4370676 -0.07707057 0.5292274 -1.1278008 1.2111003 1.1261778
-0.47520384 -0.035268582 -0.5397854 -0.24394493 -0.32598823 1.2008843 -0.33129808 -0.9646628
1.2292881 -0.398969 0.09132782 0.4797981 0.22951521 0.0026836502 -0.0772184 -0.38422182
-0.34904623 -0.27656257 -0.5093821 -0.32575464 -0.286345 0.17387383 0.497151 -0.13025835
-0.2776233 0.6440387 -0.3554374 -0.038300477 -0.16510697 0.28610998 1.134797 -0.37136573
0.47227514 0.077945754 0.8619664 0.4556729 -0.47703108 -0.44231313 -0.3052401 -0.088860966
-0.046191156 0.5169415 -0.23203516 -0.7011847 -0.45300677 0.6395863 0.17399037 -0.30083522
1.179332 -0.32923883 1.3195773 -0.35511142 -0.22056419 0.13535215 0.033338748 0.3157082
-0.116681926 -0.00023397178 -0.23515348 -0.332491 -1.0671667 -1.0200965 0.44644326 -0.45270985
0.036452986 -0.4517273 -0.45410168 -0.037550252 0.18696553 -0.28129432 0.43593195 0.014792552
-0.24961358 0.33011168 0.29374897 -0.3895729 -0.50166017 0.14775898 -0.49859264 0.018156417
-0.6770546 0.6643084 -0.16858573 -0.12130788 -0.28163627 0.12237783 0.027912335 -0.5530119
0.119122736 0.28618127 -1.0501415 -0.36174762 -0.04709889 -0.31057152 -0.25443116 -0.101624265
0.4286187 -0.050519664 -0.20132524 0.58717453 1.0303819 0.4148645 0.6951185 -0.12260311
0.137002 0.46847007 0.06659828 0.030322812 -0.46351436 0.43221942 0.57769305 0.34407642
0.72441816 -0.057335448 0.3975396 0.8330097 -0.16450106 0.6092463 0.52583396 0.37183633
0.3456363 -0.18307553 0.44366992 0.105545975 0.24011467 0.5614936 0.08729686 -0.4590867
0.60669285 0.6624078 0.33086067 0.36308646 0.68599916 0.41280636 -0.40896407 0.08338059
0.7076907 0.31918103 0.4214849 0.5518822 -0.24921507 0.52108157 0.58262765 0.5059659
0.51723033 -0.658079 0.18707973 -0.6580019 -0.62612855 -0.90110946 0.5281245 -0.20793286
0.03555541 0.40212056 0.3572177 -0.005170342 0.35745123 0.37001598 0.5487057 0.4681877
0.5701598 1.2888786 0.014321715 -0.7367771 0.29409313 0.5322853 0.38306463 0.1419366
0.19806454 0.5786087 -0.37600726 -0.99098295 1.196866 0.2525804 0.4308364 -0.22091442
0.25995007 0.5234147 0.1804192 -0.40773982 0.26084208 -0.053640272 -0.40553194 -0.073130585
0.07031026 -0.26762715 0.5078669 -0.053996366 -0.26356983 0.3632875 0.29374146 -0.10059324
-0.08339118 0.37193608 0.0265914 0.20509896 0.22334321 -0.06261995 -0.32556763 -0.112738095
0.16434401 0.63557744 0.83172816 0.37210077 0.922549 0.38545722 -0.09433449 -0.34243408
00000000: 97de f9be 51b9 ef3e 51c2 a7be 93e1 06bf
00000010: 751c d3be 923b 803d a36a 463e f0b5 fe3e
00000020: 61b4 2a3f 3395 743f b189 973f 63c5 0b3f
00000030: 5556 263e c9b2 fa3c d777 33bf 437d e7be
00000040: cbb8 5d3f cef1 e3be e954 bf3e b819 38be
00000050: 0341 443e 78d9 68bd d0f0 4e3f 3a90 33bc
00000060: 3d13 c33e b80d 9c3e 320a a13e f1ff ec3e
00000070: b899 573e 08a2 ff3e 2820 3e3f 4364 f23e
00000080: 02ca b03e 8826 eb3e 4db7 913e 9435 413f
00000090: 31ca 20bf 248e fcbe c4ff c63e b296 48bd
000000a0: d7f3 d03e e46d bcbe 53c7 dfbe 2dd7 9dbd
000000b0: 727b 073f c75b 90bf 5605 9b3f 9826 903f
000000c0: eb4d f3be ca75 10bd 602f 0abf b3cc 79be
000000d0: eee7 a6be 94b6 993f e79f a9be 24f4 76bf
000000e0: 5059 9d3f aa45 ccbe 150a bb3d 19a8 f53e
000000f0: 0906 6b3e 2ee0 2f3b ae24 9ebd b9b8 c4be
00000100: 30b6 b2be 9c99 8dbe de66 02bf 50c9 a6be
00000110: d09b 92be fb0b 323e 938a fe3e 7262 05be
00000120: a424 8ebe b8df 243f e4fb b5be f6e0 1cbd
00000130: cd11 29be 027d 923e 0741 913f a623 bebe
00000140: 0cce f13e 06a2 9f3d d4a9 5c3f f54d e93e
00000150: 6b3d f4be de76 e2be 6e48 9cbe bdfc b5bd
00000160: f032 3dbd 4756 043f a09a 6dbe d780 33bf
00000170: 81f0 e7be eebb 233f 882a 323e 1307 9abe
00000180: 5af4 963f fe91 a8be e9e7 a83f 2ad1 b5be
00000190: 94db 61be c199 0a3e 368e 083d 81a4 a13e
000001a0: eff6 eebd 5256 75b9 13cc 70be 433c aabe
000001b0: eb98 88bf 8692 82bf 3694 e43e 96c9 e7be
000001c0: ba4f 153d cd48 e7be 0480 e8be 4bce 19bd
000001d0: e473 3f3e cf05 90be 7932 df3e 765c 723c
000001e0: b49a 7fbe 6604 a93e 4466 963e 1976 c7be
000001f0: cd6c 00bf 214e 173e 8947 ffbe c4bc 943c
00000200: 7353 2dbf 1e10 2a3f bda1 2cbe 4470 f8bd
00000210: a132 90be 3aa1 fa3d 69a8 e43c 3092 0dbf
00000220: 9ff6 f33d 5a86 923e 096b 86bf fc36 b9be
00000230: c4ea 40bd 3b03 9fbe cd44 82be 6220 d0bd
00000240: e973 db3e b5ed 4ebd 3428 4ebe 1251 163f
00000250: 8ee3 833f 1f69 d43e 49f3 313f 5717 fbbd
00000260: 414a 0c3e 4fdb ef3e ae64 883d 8c67 f83c
00000270: c151 edbe dd4b dd3e b1e3 133f c92a b03e
00000280: 7873 393f 93d8 6abd 4f8a cb3e 2040 553f
00000290: f772 28be 91f7 1b3f 0e9d 063f 5561 be3e
000002a0: 3ef7 b03e 2778 3bbe b428 e33e 7d28 d83d
000002b0: 9fe0 753e 0bbe 0f3f b2c8 b23d 690d ebbe
000002c0: 3950 1b3f 8f93 293f 9266 a93e 78e6 b93e
000002d0: a49d 2f3f 5b5b d33e bd63 d1be 71c3 aa3d
000002e0: 382b 353f b26b a33e decc d73e 2748 0d3f
000002f0: 3c32 7fbe 9a65 053f 1627 153f fb86 013f
00000300: 3569 043f de77 28bf d491 3f3e d072 28bf
00000310: f649 20bf 1caf 66bf 2b33 073f 5aec 54be
00000320: 8da2 113d bfe2 cd3e 3de5 b63e f96b a9bb
00000330: d903 b73e bc72 bd3e fa77 0c3f 4cb6 ef3e
00000340: fef5 113f f9f9 a43f a0a5 6a3c 6d9d 3cbf
00000350: 6093 963e d943 083f 0c21 c43e d457 113e
00000360: 6ed1 4a3e b31f 143f 0684 c0be 0fb1 7dbf
00000370: e832 993f 3852 813e 9796 dc3e 6437 62be
00000380: 2d18 853e 81fe 053f d0bf 383e 46c3 d0be
00000390: 188d 853e e7b5 5bbd e2a1 cfbe 7dc5 95bd
000003a0: d3fe 8f3d 6d06 89be 9103 023f 4b2b 5dbd
000003b0: a0f2 86be d200 ba3e 4865 963e d403 cebd
000003c0: ffc8 aabd 686e be3e 35d6 d93c 7605 523e
000003d0: 15b4 643e e33e 80bd cdb0 a6be 3be3 e6bd
000003e0: cc49 283e 34b5 223f 23ec 543f fe83 be3e
000003f0: 2c2c 6c3f a65a c53e 7132 c1bd 8553 afbe

l1.bias f4 [8]
0.47374913 0.44586033 0.6533471 0.9184506 0.7374634 0.7467996 0.5811402 0.93761593
00000000: 3f8f f23e ce47 e43e c141 273f 941f 6b3f
00000010: 67ca 3c3f 422e 3f3f 9bc5 143f 9907 703f

l2.weight f4 [8, 8]
-0.1711634 -1.6699042 0.8179279 1.4179031 0.21171439 1.2641141 -0.13926189 0.18678497
-0.029107412 0.5317045 -1.2456617 -0.004001906 0.607593 0.8923964 1.3216349 0.9369455
1.7905232 0.3812986 1.4227824 -0.6952914 -0.44529113 0.65712285 0.35796642 -0.63529354
-0.4063327 0.28188303 -0.43437746 -1.0502689 1.8954618 1.1955824 0.2751972 0.9127633
1.2055432 -0.18524678 -0.049679495 -0.1373341 -0.42398039 0.08979155 1.1967591 0.38902888
-0.66711783 0.80781496 0.46844235 0.26232514 0.5023887 -0.1803281 0.7782858 -0.839439
-0.2827487 0.7973416 0.42668644 0.59639096 0.3382941 0.20416684 -1.8051441 0.5798432
0.87529653 0.74241465 -0.43695962 1.8667868 0.7228216 -0.6583497 0.33859143 1.7105141
00000000: 7545 2fbe 6cbf d5bf b963 513f d97d b53f
00000010: a8cb 583e 7ece a13f ab9a 0ebe 8f44 3f3e
00000020: ab72 eebc c91d 083f d871 9fbf 6c22 83bb
00000030: 378b 1b3f 1774 643f 552b a93f a9db 6f3f
00000040: dd2f e53f 9239 c33e bc1d b63f 9efe 31bf
00000050: 33fd e3be 3439 283f 6047 b73e 99a2 22bf
00000060: d70a d0be f952 903e b966 debe 366f 86bf
00000070: 7e9e f23f d808 993f a6e6 8c3e dbaa 693f
00000080: 3d4f 9a3f 55b1 3dbe ba7c 4bbd 4fa1 0cbe
00000090: f513 d9be a2e4 b73d 672f 993f cb2e c73e
000000a0: 3cc8 2abf f6cc 4e3f add7 ef3e 7b4f 863e
000000b0: 8c9c 003f eea7 38be bd3d 473f 79e5 56bf
000000c0: 70c4 90be 941e 4c3f a576 da3e 14ad 183f
000000d0: e234 ad3e 1d11 513e f60e e7bf 9b70 143f
000000e0: 6f13 603f e30e 3e3f 2cb9 dfbe dff2 ee3f
000000f0: d60a 393f 9b89 28bf db5b ad3e 20f2 da3f

l2.bias f4 [8]
0.9394362 -0.20784841 0.5417928 0.43587005 0.3442873 0.16651535 0.90904653 0.4699054
00000000: e47e 703f 37d6 54be efb2 0a3f 5c2a df3e
00000010: 6d46 b03e 0083 2a3e 46b7 683f 7197 f03e

l3.weight f4 [18, 8]
0.79319113 -2.146257 -1.6066618 -1.406476 -1.7935 0.056120872 0.36350453 0.3099798
-0.86842996 -1.4446396 0.5448242 -1.9000894 0.0059291525 -0.06651944 0.27190223 -0.5064742
-0.019569313 -2.0656374 -0.06716194 0.019480618 -1.9470924 0.11057021 0.72979736 -0.64396733
0.675792 -1.1943339 0.0029572728 -1.8783783 -0.9285765 -1.7710526 0.3038138 -0.30321154
0.1411161 -0.6441566 0.411775 0.27655166 0.017154539 -0.43169937 -0.95075125 -2.007527
0.5219606 -1.109318 0.32325464 -1.8362744 -2.5280714 0.65464 0.6419073 -2.3695824
-0.41429284 -1.3271736 0.40053022 -0.1375093 0.21783496 -1.6394598 -1.6894829 -0.2686991
0.16591439 0.056198247 -0.2754985 0.9017912 -1.9540511 -1.2792267 0.5047098 -1.7578795
0.40622413 -1.7014865 0.55196255 -0.48890078 -0.20467618 -1.0721316 -0.052774932 -2.51676
-1.825669 0.6849992 -1.6705976 0.36625865 -0.37351102 -0.14317434 -1.0817529 0.0072845924
-0.84049904 0.13703878 -0.4320354 0.4589969 -1.3246437 1.0402254 -1.0368228 -0.3078175
0.31899235 -0.048055764 -0.53223693 -1.9966569 0.0987107 -0.1028885 -1.7616104 0.47095278
0.093117304 0.41975275 -1.0248462 0.20616065 -0.70599693 -1.8852602 -1.2150548 0.21980187
-0.7974173 -0.64698863 -0.35382363 -1.3462337 -0.92996126 -1.8254275 0.7340989 0.7335971
-2.099304 0.055481415 -0.12870935 -0.34071591 -0.35884133 -0.03557166 -1.0220685 0.6070232
-1.8117505 0.11276741 0.27309683 -1.8059248 0.54833394 -1.2928517 -0.86016035 -0.22242433
0.3343989 -0.6885229 -1.3612789 0.46763986 -2.709509 -1.1481259 0.30266866 0.03851795
-1.9249889 -0.13754484 -1.2628903 0.57272875 -2.0582662 -0.62190557 0.9756447 0.36288208
00000000: 930e 4b3f 465c 09c0 18a7 cdbf 6807 b4bf
00000010: 6891 e5bf 00df 653d 441d ba3e acb5 9e3e
00000020: 6d51 5ebf f3e9 b8bf 9979 0b3f 2136 f3bf
00000030: 5649 c23b 583b 88bd c536 8b3e 4ba8 01bf
00000040: d34f a0bc 6733 04c0 338c 89bd d195 9f3c
00000050: 533a f9bf a272 e23d 00d4 3a3f 0bdb 24bf
00000060: b400 2d3f efdf 98bf cece 413b b36e f0bf
00000070: 31b7 6dbf dab1 e2bf 7b8d 9b3e 8b3e 9bbe
00000080: bd80 103e 72e7 24bf 2cd4 d23e 2e98 8d3e
00000090: ad87 8c3c b307 ddbe 6f64 73bf 537b 00c0
000000a0: 369f 053f 22fe 8dbf a281 a53e 0a0b ebbf
000000b0: eccb 21c0 7d96 273f 0954 243f 3da7 17c0
000000c0: 311e d4be d3e0 a9bf 4c12 cd3e 3dcf 0cbe
000000d0: 2110 5f3e d2d9 d1bf fa40 d8bf ee92 89be
000000e0: 76e5 293e 2230 663d 240e 8dbe cadb 663f
000000f0: 591e fabf b3bd a3bf a934 013f 3202 e1bf
00000100: 9cfc cf3e 4fca d9bf 6b4d 0d3f 3451 fabe
00000110: a296 51be 9c3b 89bf 872a 58bd 9912 21c0
00000120: 86af e9bf 1c5c 2f3f 24d6 d5bf 4186 bb3e
00000130: d63c bfbe 4b9c 12be e176 8abf 97b3 ee3b
00000140: f22a 57bf e553 0c3e be33 ddbe a401 eb3e
00000150: ed8d a9bf 1b26 853f 9cb6 84bf 419a 9dbe
00000160: f752 a33e 1fd6 44bd ae40 08bf 7492 ffbf
00000170: d628 ca3d 35b7 d2bd 737c e1bf b920 f13e
00000180: 49b4 be3d d5e9 d63e 292e 83bf c71b 533e
00000190: 37bc 34bf 3550 f1bf ea86 9bbf be13 613e
000001a0: 8a23 4cbf 0ca1 25bf 5f28 b5be 6351 acbf
000001b0: f111 6ebf 9ca7 e9bf e8ed 3b3f 05cd 3b3f
000001c0: ff5a 06c0 7b40 633d 62cc 03be 5172 aebe
000001d0: 0dba b7be 97b3 11bd 24d3 82bf df65 1b3f
000001e0: 71e7 e7bf 9af2 e63d 59d3 8b3e 8b28 e7bf
000001f0: 9d5f 0c3f 2a7c a5bf 7833 5cbf 34c3 63be
00000200: 5536 ab3e 0943 30bf 633e aebf 7e6e ef3e
00000210: 9868 2dc0 caf5 92bf 63f7 9a3e ffc4 1d3d
00000220: 0966 f6bf 8ed8 0cbe 64a6 a1bf 5a9e 123f
00000230: a2ba 03c0 3435 1fbf dac3 793f aecb b93e

l3.bias f4 [18]
-0.093448564 0.10852025 -0.0003455075 0.08957164 0.15736286 -0.07951145 -0.032972194 0.058208115
-0.30307895 -0.37032163 -0.04532596 0.42338827 -0.109522425 -0.2085986 0.15179974 0.12932688
-0.2906806 -0.032788884
00000000: f661 bfbd dd3f de3d 3b25 b5b9 5671 b73d
00000010: bb23 213e e6d6 a2bd da0d 07bd a26b 6e3d
00000020: 2a2d 9bbe cc9a bdbe b7a7 39bd 59c6 d83e
00000030: 4b4d e0bd df9a 55be 6471 1b3e 446e 043e
00000040: 16d4 94be a34d 06bd
